…
cache_enabled": true, "init": "uniform", "activation": "sigmoid", "input_dim": null, "b_regularizer": null, "W_regularizer": null, "output_dim": 1}}}
================================================================================
Model summary:
================================================================================
--------------------------------------------------------------------------------
Layer (name)                  Output Shape                  Param #             
--------------------------------------------------------------------------------
Layer (input)                 (None, 300)                   0                   
Embedding (wvs)               (None, None, 300)             36000600            
GRU (gru_forwards)            (None, 128)                   164736              
GRU (gru_backwards)           (None, 128)                   164736              
Dropout (gru_dropout)         (None, 256)                   0                   
Dense (probability)           (None, 1)                     257                 
Dense (prediction)            (None, 1)                     257                 
--------------------------------------------------------------------------------
Total params: 36330329
--------------------------------------------------------------------------------
================================================================================
Training history:
================================================================================
Epoch 1: loss: 0.466903, val_loss: 0.445318
…
