…
ary", "sample_weight_mode": null}
================================================================================
Model summary:
================================================================================
--------------------------------------------------------------------------------
Initial input shape: (None, 32386)
--------------------------------------------------------------------------------
Layer (name)                  Output Shape                  Param #             
--------------------------------------------------------------------------------
Embedding (embedding)         (None, 300, 300)              9715800             
Convolution1D (convolution1d) (None, 298, 64)               57664               
Activation (activation)       (None, 298, 64)               0                   
MaxPooling1D (maxpooling1d)   (None, 149, 64)               0                   
Dropout (dropout)             (None, 149, 64)               0                   
Convolution1D (convolution1d) (None, 147, 64)               12352               
Activation (activation)       (None, 147, 64)               0                   
MaxPooling1D (maxpooling1d)   (None, 73, 64)                0                   
Dropout (dropout)             (None, 73, 64)                0                   
Flatten (flatten)             (None, 4672)                  0                   
Dense (dense)                 (None, 1)                     4673                
Activation (activation)       (None, 1)                     0                   
--------------------------------------------------------------------------------
Total params: 9790489
--------------------------------------------------------------------------------
================================================================================
Training history:
================================================================================
Epoch 1: loss: 0.451253, val_loss: 0.440795
…
