…
ry", "sample_weight_mode": null}
================================================================================
Model summary:
================================================================================
--------------------------------------------------------------------------------
Initial input shape: (None, 120002)
--------------------------------------------------------------------------------
Layer (name)                  Output Shape                  Param #             
--------------------------------------------------------------------------------
Embedding (embedding)         (None, 300, 300)              36000600            
LSTM (lstm)                   (None, 300, 128)              219648              
Dropout (dropout)             (None, 300, 128)              0                   
Flatten (flatten)             (None, 38400)                 0                   
Dense (dense)                 (None, 1)                     38401               
Activation (activation)       (None, 1)                     0                   
--------------------------------------------------------------------------------
Total params: 36258649
--------------------------------------------------------------------------------
================================================================================
Training history:
================================================================================
Epoch 1: loss: 8.068147, val_loss: 8.007497
…
