…
, "cache_enabled": true, "init": "uniform", "activation": "tanh", "input_dim": null, "b_regularizer": null, "W_regularizer": null, "output_dim": 1}}}
================================================================================
Model summary:
================================================================================
--------------------------------------------------------------------------------
Layer (name)                  Output Shape                  Param #             
--------------------------------------------------------------------------------
Layer (input)                 (None, 300)                   0                   
Embedding (wvs)               (None, None, 300)             36000600            
GRU (gru_forwards)            (None, 16)                    15216               
GRU (gru_backwards)           (None, 16)                    15216               
Dropout (gru_dropout)         (None, 32)                    0                   
Dense (probability)           (None, 1)                     33                  
Dense (prediction)            (None, 1)                     33                  
--------------------------------------------------------------------------------
Total params: 36031065
--------------------------------------------------------------------------------
================================================================================
Training history:
================================================================================
Epoch 1: loss: 0.555155, val_loss: 0.458888
…
