…
ht_mode": null}
================================================================================
Model summary:
================================================================================
--------------------------------------------------------------------------------
Initial input shape: [(None, 120002), (None, 32386)]
--------------------------------------------------------------------------------
Layer (name)                  Output Shape                  Param #             
--------------------------------------------------------------------------------
Merge (merge)                 (None, 2500, 600)             45716400            
Reshape (reshape)             (None, 50, 50, 2, 300)        0                   
Permute (permute)             (None, 50, 2, 50, 300)        0                   
Graph (Unnamed)               (None, 200)                   865560              
MaxoutDense (maxoutdense)     (None, 128)                   205824              
Dropout (dropout)             (None, 128)                   0                   
Highway (highway)             (None, 128)                   33024               
Highway (highway)             (None, 128)                   33024               
Highway (highway)             (None, 128)                   33024               
Dropout (dropout)             (None, 128)                   0                   
Dense (dense)                 (None, 1)                     129                 
--------------------------------------------------------------------------------
Total params: 46886985
--------------------------------------------------------------------------------
================================================================================
Training history:
================================================================================
Epoch 1: loss: 0.477414, val_loss: 0.446507
…
