…
ry", "sample_weight_mode": null}
================================================================================
Model summary:
================================================================================
--------------------------------------------------------------------------------
Initial input shape: (None, 120002)
--------------------------------------------------------------------------------
Layer (name)                  Output Shape                  Param #             
--------------------------------------------------------------------------------
Embedding (embedding)         (None, 300, 300)              36000600            
GRU (gru)                     (None, 300, 128)              164736              
Dropout (dropout)             (None, 300, 128)              0                   
GRU (gru)                     (None, 300, 64)               37056               
Dropout (dropout)             (None, 300, 64)               0                   
GRU (gru)                     (None, 300, 16)               3888                
Dropout (dropout)             (None, 300, 16)               0                   
Flatten (flatten)             (None, 4800)                  0                   
Dense (dense)                 (None, 1)                     4801                
Activation (activation)       (None, 1)                     0                   
--------------------------------------------------------------------------------
Total params: 36211081
--------------------------------------------------------------------------------
================================================================================
Training history:
================================================================================
Epoch 1: loss: 1.125215, val_loss: 0.604087
…
